Discriminator modeling:
Model: "sequential_1"
_________________________________________________________________
Layer (type)                 Output Shape              Param #   
=================================================================
flatten_1 (Flatten)          (None, 5184)              0         
_________________________________________________________________
dense_1 (Dense)              (None, 512)               2654720   
_________________________________________________________________
leaky_re_lu_1 (LeakyReLU)    (None, 512)               0         
_________________________________________________________________
dense_2 (Dense)              (None, 256)               131328    
_________________________________________________________________
leaky_re_lu_2 (LeakyReLU)    (None, 256)               0         
_________________________________________________________________
dense_3 (Dense)              (None, 1)                 257       
=================================================================
Total params: 2,786,305
Trainable params: 2,786,305
Non-trainable params: 0
_________________________________________________________________
Generator modeling:
Model: "sequential_2"
_________________________________________________________________
Layer (type)                 Output Shape              Param #   
=================================================================
dense_4 (Dense)              (None, 256)               25856     
_________________________________________________________________
leaky_re_lu_3 (LeakyReLU)    (None, 256)               0         
_________________________________________________________________
batch_normalization_1 (Batch (None, 256)               1024      
_________________________________________________________________
dense_5 (Dense)              (None, 512)               131584    
_________________________________________________________________
leaky_re_lu_4 (LeakyReLU)    (None, 512)               0         
_________________________________________________________________
batch_normalization_2 (Batch (None, 512)               2048      
_________________________________________________________________
dense_6 (Dense)              (None, 1024)              525312    
_________________________________________________________________
leaky_re_lu_5 (LeakyReLU)    (None, 1024)              0         
_________________________________________________________________
batch_normalization_3 (Batch (None, 1024)              4096      
_________________________________________________________________
dense_7 (Dense)              (None, 5184)              5313600   
_________________________________________________________________
reshape_1 (Reshape)          (None, 72, 72, 1)         0         
=================================================================
Total params: 6,003,520
Trainable params: 5,999,936
Non-trainable params: 3,584
_________________________________________________________________
Start training...
frame757.jpg (720, 1280)
(72, 72)
frame496.jpg (720, 1280)
(72, 72)
frame587.jpg (720, 1280)
(72, 72)
frame697.jpg (720, 1280)
(72, 72)
frame579.jpg (720, 1280)
…
